app/src/main/assets/cnn.onnx (onnx, 26426 bytes, 15 tensors)

model.fc1.weight f4 [32, 64]
00000000: 7702 443e c87f 183e cbe4 883e d5c4 76bd
00000010: 1d6e 76be 67b2 21be 21b0 6e3e 84b4 60be
00000020: 6f6a b53e f4ed 773e f38d efbd e855 6fbd
00000030: 337c 74be eaf6 1bbe 03e1 92be 6e82 283e
00000040: 02df c03d 50a7 c6bc 6728 bb3e 77c4 bf3e
00000050: 8530 c2bd a71a bfbe 3423 c63d 57b7 33be
00000060: 4627 52be 4b81 793c 9368 a23e 3026 743e
00000070: 17f8 85bd 1317 1fbe 97a4 753e f163 f63d
00000080: 26b5 d9bd b766 963e 3d40 17be cc65 893e
00000090: a1f0 b13e 8a0f fabc 7133 d6bd 54f1 c03e
000000a0: 03c1 a2bd 2411 29bd f4c0 bd3e 0516 943c
000000b0: e8e1 d8bd 3082 503d d071 943e 3c32 6e3e
000000c0: c9ae 22be 6fab 94be 9f08 323e 272d 8d3e
000000d0: 5d63 9cbc f202 a13d adc3 b93e dbbe 52be
000000e0: 6d84 e4bd 174c 45be 3ef7 b4bd d5dc a5be
000000f0: d5ac d4be d8eb 82be 1573 9dbc f5c8 d3bc
00000100: c0c2 a9bd 2cb0 4fbd 10da 79bc 06af e3bd
00000110: b04d 083d 345d 8bbd 0001 62bb d624 a6bd
00000120: 286a 213d 5800 7dbd 009e c8bc 949f bbbd
00000130: 341c f2bd d2b9 e03d c219 c43d ac38 05bd
00000140: ec76 2f3d 0a44 e93d da70 f8bd 24f7 afbd
00000150: 1a2f b03d 6074 11bd 5030 113c fc44 e63d
00000160: 323c b9bd 6260 e63d cc68 c43d 4827 b83c
00000170: a84e b3bd d852 1e3d 2220 acbd be15 cd3d
00000180: e63f d4bd 94f2 bbbd 74de 0f3d 98ea 72bd
00000190: ea5a 883d 9a69 d4bd 7c3a a0bd b094 393c
000001a0: 68aa 5e3d c647 8dbd 8892 133d 70b7 9bbd
000001b0: bcc7 36bd 8012 e6bb 76d1 b9bd 802c 8cbb
000001c0: 0870 b6bd 3a38 adbd a4d7 8d3d c85b bb3d
000001d0: 2814 6ebd eea0 a93d b026 283d a08e 8dbb
000001e0: 186e a33c 68fa ee3d 4cdc 1b3d c081 a3bd
000001f0: 9aab c4bd 1c19 d83d d0ed 8bbd 80eb abba
00000200: e403 a53e 4fbf bfbd f8cf 933e a545 a0be
00000210: 3e68 213d a0f3 85be b600 8cbe b89f a53d
00000220: e39b 3f3e 6d04 9c3e 83c9 723e a0ab f93d
00000230: 8bc6 9fbe 77c7 4ebe d389 f2bd a018 853d
00000240: 7a56 83be 599e da3e ac62 143d 8de0 643e
00000250: 619a 303d 7087 fbbc 7fa0 04be 46db aabe
00000260: 74ed d8be a5e3 64be 30c4 2e3e 518d 00be
00000270: ea84 b2be de49 86be 95ef 583b 78cd ca3e
00000280: 8b72 a33e 95bc babd d146 253e bd75 84bc
00000290: 0064 b63d ad0c 7abe 014d de3d a56a 123e
000002a0: c3e1 8f3e efe2 be3e 6265 993e 8bf6 963d
000002b0: dc2b 3abe dc19 e93e eba1 7f3e 4ecf 0fbe
000002c0: 6bda 03be f4a5 36be b277 7b3d 464a cabc
000002d0: d90f 50be 62c6 94be b2b4 21be eb08 99bd
000002e0: ffd5 eb3d 1901 41be aa3a 4abe b25b a8bd
000002f0: 2217 783c c755 11be b70a bd3e bf2a aebe
00000300: 4172 733e 0a5c b6be 8193 183e 971f 9abe
00000310: 5fa8 b33e 774b 80be 483b cbbe b184 173e
00000320: 7073 fdbd 3db6 553e 225b cc3e 39ba a33e
00000330: 9f62 b5bd 7739 5bbe 779a 063e 16c8 ff3c
00000340: 36e4 c4be e87f ef3e 4476 a1bd 1320 423e
00000350: 86fa 783e f2db 473e 40a4 87be 0e73 a6bc
00000360: a075 81be 5667 32be 5836 823d 7c5b 41be
00000370: 117c 01be 255c dcbe ae08 8ebe 28ff 973e
00000380: 6f77 7a3e cd34 5ebe 3433 983e d4bd 8cbe
00000390: f2aa 473d 0581 043c 7a77 243e 336a 1cbd
000003a0: 22de 3c3e e910 e23e 97a6 1a3d da9d 9abd
000003b0: 0189 7fbe c236 d53e aa50 773d 1e13 51be
000003c0: c704 103e a3f7 23be bdab 14bc 0ccb 083d
000003d0: 82e7 b7be 0ae1 88be 3917 37be 8ea1 a93e
000003e0: 475f 7d3e f0a2 6a3e 4aa1 623d 2757 183e
000003f0: b3d9 973e cbd4 b13d 39e5 b83e 8b55 2abd
0.19141565 0.14892495 0.26737055 -0.060246307 -0.24065442 -0.15790711 0.23309375 -0.21943861
0.35432765 0.24211866 -0.116969965 -0.058431536 -0.23875503 -0.15230909 -0.28687295 0.16456005
0.09417535 -0.024249703 0.36554262 0.37454578 -0.094819106 -0.37325022 0.09674683 -0.17550407
-0.20522794 0.01522858 0.3172041 0.23842692 -0.0654146 -0.15536146 0.23988567 0.12030781
-0.106302544 0.2937524 -0.14770599 0.26835477 0.34753898 -0.030524988 -0.104590304 0.3768412
-0.0794697 -0.041276112 0.37061274 0.018076906 -0.10589963 0.050905406 0.28993082 0.2326135
-0.15886988 -0.29037043 0.17386101 0.2757351 -0.019090349 0.0786189 0.362821 -0.20580618
-0.11158071 -0.19267307 -0.0883622 -0.32395044 -0.4153811 -0.2557056 -0.019219914 -0.02585266
-0.08289099 -0.05070512 -0.015249744 -0.111173674 0.033277214 -0.068048865 -0.003448546 -0.08112495
0.03940788 -0.061767906 -0.024489403 -0.091612965 -0.118217856 0.109729424 0.095752254 -0.03252475
0.042838022 0.113899305 -0.121309 -0.0859206 0.08602734 -0.035511374 0.008861616 0.112436265
-0.090446845 0.11248852 0.09590301 0.022479668 -0.08755237 0.038653225 -0.08404566 0.100139126
-0.1036375 -0.091771275 0.035124257 -0.059305757 0.066579655 -0.103717044 -0.07823655 0.011326954
0.05436173 -0.06898455 0.036028415 -0.07603347 -0.044624075 -0.0070212483 -0.09073155 -0.0042777658
-0.08908087 -0.0845799 0.06925896 0.09148365 -0.05812469 0.08282648 0.04105252 -0.0043199807
0.019949958 0.11668855 0.03805189 -0.07983732 -0.09603043 0.10551664 -0.068324685 -0.0013116449
0.3222953 -0.09362661 0.28869605 -0.31303135 0.039406054 -0.26162434 -0.27344292 0.080871046
0.1871181 0.30472127 0.23709683 0.12190938 -0.31206164 -0.20193277 -0.11842694 0.064988375
-0.25651914 0.42698935 0.036226913 0.22351284 0.043115977 -0.03070423 -0.1295185 -0.33370417
-0.42368662 -0.22352464 0.17067027 -0.12553908 -0.3486703 -0.2622823 0.0033101786 0.39609885
0.31923327 -0.091180004 0.16140296 -0.016169423 0.08905792 -0.24418898 0.10854531 0.14298494
0.2810193 0.37282512 0.2996016 0.07371243 -0.18180794 0.45527542 0.2496411 -0.14043924
-0.12876289 -0.17836744 0.061393447 -0.02469362 -0.20318545 -0.29057604 -0.15791586 -0.07472404
0.11515426 -0.18848075 -0.19748941 -0.082206145 0.015142234 -0.14192878 0.36922237 -0.34016988
0.23774053 -0.35617095 0.14900018 -0.30102226 0.35089394 -0.25057575 -0.39693666 0.14796712
-0.123755336 0.208703 0.3991328 0.31978014 -0.08856701 -0.2140864 0.13144861 0.031223338
-0.3845536 0.46777272 -0.078838855 0.18957548 0.24314317 0.19517496 -0.264925 -0.020318534
-0.25285053 -0.17422232 0.063580215 -0.18882555 -0.12644984 -0.4303905 -0.27740997 0.29686856
0.24459623 -0.2169983 0.29726565 -0.27488577 0.04874701 0.008087401 0.16061202 -0.038187217
0.18444112 0.44153526 0.03775653 -0.07549639 -0.24954607 0.4164334 0.06037966 -0.20417449
0.14064322 -0.16012435 -0.009074149 0.033396766 -0.35918814 -0.2673419 -0.17879952 0.3313107
0.24743377 0.22913718 0.0553296 0.14876996 0.2965828 0.08683165 0.36112383 -0.041585486

model.fc1.bias f4 [32]
00000000: 050d 473d c242 b5bd 2c04 0abd 998c ba3d
00000010: bfbe 77bd a349 2c3d e1a9 83bd 9375 943d
00000020: 1350 683d a546 a0bc 8ce3 183e 3112 33bd
00000030: af13 e2bd ceba 0f3e 2493 6fbd 28fc 3cbd
00000040: cf54 1a3e bb36 ad3d 9956 873d a72a 393e
00000050: 5e52 9c3d 1a01 4f3e 92a0 613e 2600 543d
00000060: 4aba 2a3e 4c21 8e3d fef2 b7bc 5dfa 653e
00000070: b027 a8bd 8392 033e 70a9 3ebd 012c cb3d
0.0485964 -0.08850624 -0.033695385 0.09108848 -0.060484644 0.042062413 -0.06428886 0.07248988
0.05671699 -0.019564936 0.14930552 -0.04371852 -0.110389106 0.14036104 -0.058489934 -0.046138912
0.15071414 0.08457705 0.06608314 0.18082677 0.07632898 0.20215264 0.22033909 0.051757954
0.16672626 0.069399446 -0.022454735 0.22458787 -0.08210695 0.12848859 -0.046548307 0.099205025

model.fc2.weight f4 [4, 32]
00000000: f9fe 41bf ce29 2b3e b486 3f3d 57ca 93be
00000010: f141 57bf 86b7 8e3d cb85 e73d 88f8 c03e
00000020: 7d48 f73e 2538 acbb 095e 543f adbb f4bf
00000030: 3c75 3ebf 5e39 b13e 7928 49bb 4c0f c7bd
00000040: cf10 3f3f 4d9b 44bf 2ad8 43bf 367c ab3e
00000050: 5813 66bf 192a 04bf 30a6 133f c362 04bd
00000060: e252 4ebf 78b5 ebbe 2468 80be c900 403f
00000070: ab3c 3dbd 4f88 2d3f 7399 dc3e 5226 47bf
00000080: 6be4 513e 8400 c23d a3f4 7d3f b830 e03e
00000090: eb7c 2fbf 246e 4e3e 13c6 d5bc cdb3 65bf
000000a0: 6468 62bf b3c6 24bd 3591 11bf 5c70 e7be
000000b0: b1f8 293c 180e 25bf 6331 023e cfb8 8abd
000000c0: c1f5 3b3f 88de df3d b758 033e d281 7cbf
000000d0: 63d6 2bbf d98b 0d3e c6da 11bf b775 febe
000000e0: ee99 63be 4a7b 943e cf8e 8e3e 1ccc 11bf
000000f0: a50f c9bd b16a 4abf 852a 073f 296f 1c3e
00000100: 21ab 593e b035 19be 362e 48bf f28d 06bf
00000110: f2cc 38be 6717 203e 2082 1cbe 9a69 753e
00000120: 5411 393e e3d8 d9bd e6b2 2fbf 2324 f2bc
00000130: ba81 553d 19af 06bf f59f 393d afd7 fd3d
00000140: 164f 3ebf 06da d83d ebae 593d 0bf0 b53e
00000150: 0b02 bcbd 6578 a5bd 8d58 f93e cec3 87be
00000160: 4ddd 233f 0247 8e3e 04ea 28bf 59cd f8be
00000170: a8f4 febd 774c ad3e bc31 85bf c9b3 823e
00000180: b93f 09bf 7944 6dba 187f 28bf e5d9 873e
00000190: fef7 1a3f b143 f0be 13d8 5bbd d1ee 7e3c
000001a0: 39b3 403e 9b44 d3bd 36fa 34bf 6954 983e
000001b0: 7423 9f3d 60cc 303f a106 be3b 8412 543c
000001c0: 3227 b9be 3708 173e bcb6 d93d ca73 f3bc
000001d0: 4fb2 e43e 5dab 19bf 0ee7 03bf c900 333f
000001e0: 8b27 31bf d181 bdbe e307 5d3e 5a9c 6abf
000001f0: 0e36 0abe 14c1 e2bc 5dec a83e 35fa 09bf
-0.7577968 0.16715166 0.046759322 -0.2886531 -0.84084994 0.06968598 0.11304816 0.37689614
0.48297492 -0.0052557164 0.82955986 -1.9119774 -0.74397635 0.3461408 -0.003069429 -0.097197145
0.7463502 -0.7679947 -0.76501715 0.33493203 -0.89873266 -0.51626736 0.57675457 -0.03232075
-0.8059522 -0.46036887 -0.25079453 0.750012 -0.046200436 0.67786115 0.43085822 -0.7779285
0.20497291 0.094727546 0.9920141 0.4378717 -0.68549985 0.20159203 -0.026095426 -0.8972748
-0.8844054 -0.040228557 -0.56862193 -0.4520291 0.010374234 -0.6447463 0.12714152 -0.06773531
0.73421866 0.10931116 0.12826811 -0.9863559 -0.67124003 0.13822879 -0.56974447 -0.49699184
-0.22226688 0.29000312 0.2784333 -0.5695207 -0.09817437 -0.7906905 0.52799255 0.15276779
0.21256687 -0.14961886 -0.7819551 -0.5256034 -0.1804693 0.15633927 -0.15284014 0.23966065
0.18073016 -0.10637071 -0.6863235 -0.029558247 0.05212567 -0.5261093 0.045318563 0.12394654
-0.74339426 0.1058846 0.05314533 0.355347 -0.09180077 -0.08079604 0.4870037 -0.26516575
0.64009553 0.2778855 -0.6598208 -0.48594168 -0.12449008 0.338474 -1.0405803 0.2552779
-0.5361286 -0.0009051036 -0.6581893 0.26533428 0.60534656 -0.46926644 -0.05367286 0.015559868
0.18818368 -0.1031582 -0.7069429 0.297519 0.07770434 0.6906185 0.00579913 0.012943868
-0.36162716 0.14749227 0.10630557 -0.029718298 0.4466729 -0.60027105 -0.51524436 0.69923073
-0.6920096 -0.37013105 0.2158504 -0.91644824 -0.13497183 -0.027679957 0.3299283 -0.5389741

model.fc2.bias f4 [4]
00000000: 5595 bc3d 757e 813c 8f92 18be 9956 b0bd
0.0920817 0.01580737 -0.14899658 -0.08610267

onnx::Conv_95 f4 [1, 1, 9]
00000000: c685 03bb f3c7 fc3b ec9e 34bc a345 83bc
00000010: f7db 1d3d 2313 5739 a5e7 a73b 2036 cb3c
00000020: c2d0 b83c
-0.002006875 0.0077142655 -0.011024218 -0.016024416 0.038539853 0.00020511127 0.0051240497 0.024806082
0.022560481

onnx::Conv_98 f4 [16, 1, 1]
00000000: 7086 1d40 3852 03c0 8929 1840 a50f c8bf
00000010: 8d39 ed3f 118c 1f40 7c15 b3bf 9112 14c0
00000020: ecb3 1440 4d60 0a40 40e2 f93f 55e5 0640
00000030: e3f6 1240 069c 2c40 a6bc 42c0 d874 d3bf
2.4613304 -2.0518932 2.377535 -1.5629774 1.8533188 2.492924 -1.3990932 -2.3136332
2.3234816 2.1621277 1.9522171 2.1077473 2.2963188 2.697023 -3.0427642 -1.6520033

onnx::Conv_99 f4 [16]
00000000: 7b5d 98bf 7d67 9a3f a1a0 8cbf 5598 863f
00000010: 2c74 2fbf 001c 93bf abb0 893f 4eee a03f
00000020: c6b2 a2bf 343b 6cbf 46d3 96bf 72cd 97bf
00000030: 6828 83bf f867 b9bf e5c7 ca3f a170 8a3f
-1.1903528 1.2062832 -1.098652 1.0515238 -0.6853664 -1.149292 1.075704 1.2572725
-1.2710807 -0.92277837 -1.1783226 -1.1859572 -1.0246706 -1.4484854 1.5842253 1.0815622

onnx::Conv_101 f4 [16, 1, 9]
00000000: 3dd9 4ebf e95e 5ebf 49d0 793f 4e06 373f
00000010: 1160 04bd 1ee2 9fbe be1b be3d 1488 693f
00000020: 9c14 2abf 996c b33f 5297 03bf 5682 45bc
00000030: 1ee4 66be 83a8 963f db8e 1cbf 1320 a93d
00000040: e929 5a3e ffad bd3f 664a 8a3e 4ecc 1ebf
00000050: df94 7e3c b572 123f 1b37 d5be d179 4ebe
00000060: e145 02bf 125d 62be 4aa6 32bf 7b19 5d3f
00000070: 2a1c 13c0 3e52 babe 6a60 c73d 2d68 1240
00000080: fb3d 703f beb5 1bbf 2af4 4ebf f408 1cbd
00000090: 85b5 843f c4c9 003e f7d6 63bf 5c3b 113e
000000a0: 79c9 fcbe 32c2 f1be 63c0 4fbe d624 fc3e
000000b0: ca2c 633b ecc6 d9be 6a52 55be c409 b7be
000000c0: be79 ebbe 9d74 0cbf 6047 dd3d 4a57 b73e
000000d0: cbee 13bf f1e4 543e db11 d63e 7cde 8dbf
000000e0: 22d8 49be 96df 923f 0a38 f23e 6029 87bf
000000f0: af75 21c0 488b c23f fad0 903f 83c2 a5be
00000100: 6601 a8bf b218 3c3f fb04 0fbf 5998 41bf
00000110: ce78 44be e631 683f 7f47 8e3e 8618 59bf
00000120: f1e2 85bf 15e9 123f 464e 17bf 914e b4be
00000130: c2ef 56bf 749b 973e 6340 6c3f 994b 66bf
00000140: 4b7d 94be 2d4f dbbe 4a63 d5be b2d3 5dbf
00000150: 89ca 57be cc24 41bd a61c 363f e647 04bf
00000160: 0114 393f 1fdc 8f3e 2610 673f 8119 80bf
00000170: 00a7 263e 0049 623e 74e9 923f 99f7 2d3f
00000180: 23c3 703f 0f39 053f cac1 6bbf 92da 0b3d
00000190: cdd9 2c3f 8f66 fdbe bda4 143f 4b50 8dbe
000001a0: 8c7f 7dbf 1b45 f1be 903e e03c 21bb 57bf
000001b0: 0871 1ebf f13f e93e 7f61 9d3f 96c1 5b3d
000001c0: 0817 3c3f fdc9 873e 7b2a 263f 62be 05bf
000001d0: 21c2 63bf f90a ae3e 61ef 813e 1575 883d
000001e0: ee79 9ebf 7697 adbf 47b4 8abf 6e72 5dbd
000001f0: ef9e ce3e 2eea d63e f1ce df3e 4f82 03bf
00000200: 9edc babe ccde 503f 4d4b 2bbf 081f 9a3e
00000210: ec61 c03e 32d6 233f 53a7 0abe fd41 1abf
00000220: 72bd 5ebf a282 ca3d dc5c 41bf 433b 86be
00000230: b2ab 9d3c b6a5 69bf cabb 98be 5264 5d3f
-0.8080023 -0.8686357 0.9758344 0.71493995 -0.03231818 -0.312272 0.09282635 0.91223264
-0.664377 1.4017516 -0.5140277 -0.012055 -0.22547957 1.1770176 -0.6115548 0.08258071
0.2130505 1.4818724 0.27009887 -0.62030494 0.015538423 0.5720628 -0.41643605 -0.20163657
-0.50887877 -0.22105816 -0.69784987 0.86367005 -2.298594 -0.3639087 0.097351864 2.2876084
0.93844575 -0.6082419 -0.80841315 -0.038094476 1.0367895 0.12576967 -0.88999885 0.141828
-0.4937246 -0.47218472 -0.20288233 0.49246854 0.0034664148 -0.42534578 -0.2083222 -0.35749638
-0.4599132 -0.5486544 0.10804629 0.35808784 -0.57786244 0.20790459 0.41810498 -1.1083522
-0.19711354 1.1474483 0.4730838 -1.0559502 -2.5228078 1.5198755 1.1313775 -0.32374963
-1.3125427 0.7347518 -0.55866975 -0.7562309 -0.19186708 0.9070114 0.27788922 -0.84803045
-1.0459882 0.57386905 -0.5910381 -0.3521619 -0.8395959 0.2961079 0.92285746 -0.899591
-0.2900184 -0.42833844 -0.41677314 -0.86651146 -0.21073355 -0.047154233 0.71137464 -0.5167221
0.7229615 0.28097627 0.90259016 -1.0007783 0.16274643 0.2209816 1.1477494 0.6795593
0.94047755 0.5204019 -0.92092574 0.03414399 0.6751984 -0.49492308 0.5806387 -0.2760032
-0.99022746 -0.47123036 0.027373582 -0.8426991 -0.6189122 0.45556596 1.2295378 0.053651415
0.7347264 0.26521292 0.6490857 -0.52243626 -0.8896809 0.33992746 0.25377944 0.066629566
-1.238096 -1.3561847 -1.0836266 -0.054064207 0.40355632 0.4197554 0.4371257 -0.5137071
-0.36496443 0.8158996 -0.66911775 0.301018 0.37574708 0.6399871 -0.13540392 -0.6025694
-0.8700782 0.098881975 -0.7553232 -0.26217088 0.01924691 -0.9126848 -0.29830772 0.864812

onnx::Conv_102 f4 [16]
00000000: 7fe7 b6bc f252 babf aa13 773f 3839 eb3b
00000010: 8a1b a13d 8d4f 833f 0081 683c 7ea9 443f
00000020: 444f 3b3f 0331 6e3e 10c7 3cbf c4ad eb3e
00000030: 3ae5 eebe 75a1 613f bc7a 4bbf 48e2 9a3f
-0.022327183 -1.4556563 0.9651438 0.007178452 0.07866581 1.0258652 0.014190912 0.76821125
0.73167825 0.23260884 -0.73741245 0.4603101 -0.4665926 0.8813699 -0.7948415 1.2100306

onnx::Conv_104 f4 [32, 16, 1]
00000000: 920b 273e 463e 96be 66e7 5c3e 6e76 a73e
00000010: c94a f63e 3d31 5abe 27fa 2d3f 513f fcbe
00000020: 64b4 bc3d d1a3 ab3e afb9 e63d 6605 8c3e
00000030: 65fb 9f3e 8c9b cc3e e622 97be dc53 913d
00000040: 4bf1 963d 2c39 703e 57eb b53e 094e d93d
00000050: 7102 e53e 7e05 11bd af1a 0dbf e76a 0d3e
00000060: 98f9 34bf 574e 5fbf 2eec f0be f2cc 9c3e
00000070: 6377 993e a247 893e a3a4 16bf 9262 96be
00000080: 89cb f13d e3c7 ac3e d681 133e 4ab6 0ebe
00000090: f97f c43e 4eac 40bf b4a9 a1bf d30a 94be
000000a0: 742a 0e3f 22f6 04be a647 ab3c ef03 0e3f
000000b0: 3254 12bf 2403 81bf ef2d dabe ac77 9dbd
000000c0: 272b 3e3f 40e3 b93e 0aa0 153e 6def bfbe
000000d0: 7300 a73e 57ab 8bbd 5aec d5bc 4ef4 8bbd
000000e0: 4d92 b7be c203 c5be 7e64 f9be 7fd9 343f
000000f0: c540 dabe dcae 543f 7374 10be 1f82 e63e
00000100: 341c 183e 686e 1d3f 91ff 4dbf 4a83 aa3d
00000110: 9e79 4e3e c982 36be 3306 ce3a b4ff d8bc
00000120: 8a8c ee3d 389c 5fbf 378d 0e3f d83e 573c
00000130: e6ff febc b24c 43be 380a 59be f468 f93e
00000140: 96ec 483e 39c9 cf3d 1347 6a3e d59e c43e
00000150: 4671 f6be b684 9abe ecc0 683e 751d 173d
00000160: 075c 79bd eb84 6e3e 9f5e a73e 55c0 c73e
00000170: 94ff 18be 9875 853f 664f 89bf 9dd4 cabe
00000180: 2388 1f3e a4dd 4f3e 5215 81be df65 dabd
00000190: 3a10 aebe 72a1 613c f6cd dd3e d9ca febd
000001a0: 437c babc d4b1 923e 52b7 87be 940c 0abe
000001b0: 514c 98bd 7521 95bc aea4 053f 10fd 07bf
000001c0: 224e 89bf 1a4e 9c3e 34e4 aabe eade 15bf
000001d0: 7a94 233f 9d62 b5be 19d8 53bd 2358 17be
000001e0: 145f b03e 090e 63bc b5db 9d3e 1b69 833e
000001f0: 892d 5cbe d3e7 78be 4d78 a3be a2c5 6f3e
00000200: e3ba 203e 2ba4 b5bd 8c0c 8f3e 2d01 b53e
00000210: 246f dbbe 68e5 e6bd 5a69 e63e 20ec 21bf
00000220: 4b46 12bd aea0 1dbf 6a87 583e 03db a13d
00000230: 12fa 9a3e 410b e9be 1270 f23e c71a 45be
00000240: 2856 6e3d 563f 913c c2ae c2be 539f 8cbe
00000250: 628b 72be 1d8a 283e 35b2 70bd 1707 96bd
00000260: e6a6 d73d 6b89 b83d 65c8 44be 4d89 08bf
00000270: 0aad 35be 5852 97be 3ded 8cbe ba92 bdbd
00000280: 431b f2bd 1ab4 913e 22b0 a7be 8974 823e
00000290: e11f 24bf f7a7 f4bc 5531 863e 7d94 c43e
000002a0: fd4e 053e f40c 91be 3177 52bf ba37 ea3c
000002b0: 689c d43d 3a17 b9be 1e57 303d a6cf fdbd
000002c0: ab25 0e3e ebba 1c3c 3560 14bf f97b 763c
000002d0: 5d86 d5bd 7012 2abf d9d1 9bbd 720f e2be
000002e0: eabb 4fbe 2fba 093f 042f 953e aa51 a53e
000002f0: 7b2a e33e 4c7c f53e 4bc8 143e 5f94 f83e
00000300: e9e9 67bf ab2c 09be 1ee4 f7bc 7c14 3f3d
00000310: 93e3 153f c5a2 6bbd 8b4e 473c b92b 823e
00000320: 9fcc 07bf e763 56bf 79f6 91be 82e0 2cbe
00000330: 53c3 28bd 80e4 a53d b884 a13e 9dc7 ebbe
00000340: 0ebb 923e 9f84 143e 6ab4 b43e 4000 49bf
00000350: 2289 28bf 9191 173e 640c ad3d cd1d dabe
00000360: f994 3e3e 12d4 b7bd 6883 fabd 64cd 40bf
00000370: da59 5bbd 1112 15bf cf40 00bd 86ec cc3e
00000380: c3eb 593d 4440 8bbe c5e0 14bf 6b76 98be
00000390: 0cde e23e c1f1 f93e 1606 60bf 76d0 523e
000003a0: 907a 3b3e e314 54bf f67c 0ebf fbda d23e
000003b0: fbfa c2be 7539 703f e137 1f3e e2d4 113f
000003c0: 2704 783d e0b9 8b3e fc95 5bbd bb31 a5be
000003d0: b17d be3e 7bcc 923e 7a47 c13c 17d8 e1be
000003e0: 76cc 36bf 8b01 253f e243 23bd 14c8 233e
000003f0: fa14 c6be ff48 ab3e abd9 25be 35f1 333f
0.16313007 -0.29344386 0.21572646 0.32707542 0.48103932 -0.21307845 0.6795983 -0.49267057
0.09214094 0.3352342 0.11265885 0.2734787 0.31246486 0.39962423 -0.29518813 0.07096073
0.07370242 0.2345931 0.35531113 0.10610587 0.44728425 -0.03540563 -0.5511884 0.13810311
-0.7069335 -0.8722891 -0.4705519 0.3062511 0.29973897 0.26812464 -0.58844966 -0.29372078
0.118063994 0.3374625 0.14404997 -0.13936725 0.38378885 -0.75262916 -1.2629914 -0.28914508
0.5553353 -0.12984517 0.020908188 0.5547475 -0.5715972 -1.0079083 -0.4261317 -0.07688841
0.74284595 0.3630619 0.14611831 -0.37487355 0.3261753 -0.0681979 -0.026113678 -0.06833707
-0.35853806 -0.3847943 -0.48709482 0.7064437 -0.4262754 0.83079314 -0.14106922 0.4502115
0.14854509 0.6149659 -0.8046809 0.08325823 0.20163581 -0.17823328 0.00157184 -0.026489116
0.116478994 -0.87347746 0.55684227 0.013137542 -0.031127881 -0.19072226 -0.21195304 0.48712885
0.196215 0.10145802 0.22878675 0.3840243 -0.48133296 -0.30179375 0.22729844 0.036893327
-0.06087878 0.23292892 0.32689378 0.39013925 -0.14941245 1.0426512 -1.0727355 -0.39615336
0.15579276 0.20299393 -0.2521158 -0.106639616 -0.33996755 0.013771402 0.43321198 -0.12441034
-0.02276433 0.28651297 -0.2650705 -0.1348136 -0.07436431 -0.01820443 0.52204406 -0.5312052
-1.0726969 0.30528337 -0.3337723 -0.58543265 0.6389843 -0.35426798 -0.05171976 -0.14779715
0.3444754 -0.013858327 0.30831686 0.25666127 -0.21501745 -0.24307184 -0.3192772 0.23415235
0.15696292 -0.08869203 0.2793926 0.3535246 -0.4285823 -0.112742245 0.45002252 -0.63250923
-0.035711568 -0.615733 0.21145406 0.07903101 0.30268914 -0.455164 0.47351128 -0.19248496
0.058187634 0.017730396 -0.38023955 -0.27465305 -0.23685983 0.16458936 -0.0587637 -0.07325571
0.1052988 0.090105854 -0.1921707 -0.53334504 -0.1774179 -0.2955501 -0.27524748 -0.092565015
-0.11821606 0.2845772 -0.32751566 0.25479534 -0.64111143 -0.029865248 0.26209512 0.38394538
0.13018413 -0.28330195 -0.8221312 0.028591026 0.103813946 -0.36150533 0.04305183 -0.123931214
0.13881557 0.009566049 -0.579593 0.015044206 -0.104260184 -0.66434383 -0.07608385 -0.4415241
-0.20286527 0.5379972 0.29137433 0.32288867 0.44368348 0.47946393 0.1452953 0.48550698
-0.90591294 -0.13395946 -0.030260142 0.046650395 0.58550376 -0.057528276 0.012164722 0.25423983
-0.530466 -0.8374619 -0.28508356 -0.16882518 -0.0412019 0.081002235 0.3154657 -0.4605073
0.28658336 0.14503716 0.35293895 -0.78516006 -0.6583425 0.14801623 0.08449629 -0.4260086
0.18611516 -0.08975996 -0.12232095 -0.753134 -0.053552486 -0.5823069 -0.031311806 0.40024203
0.053203356 -0.27197468 -0.5815547 -0.29777846 0.44310033 0.48817256 -0.87509286 0.20587334
0.18308473 -0.8284437 -0.55659425 0.41182694 -0.38082108 0.9383767 0.1554866 0.5696546
0.060550835 0.2729025 -0.053609833 -0.32264504 0.3720527 0.2867163 0.023593653 -0.44110176
-0.7140573 0.6445548 -0.03985966 0.15994292 -0.3868788 0.3345413 -0.16196315 0.7028993

onnx::Conv_105 f4 [32]
00000000: cb7a 3ebf 01d6 8c3e 5e68 883f 2bd3 babe
00000010: 7b7f 9d3e a409 fabe 023b b43e efeb f33e
00000020: f496 1e3e 8c21 9d3f 65df 1c3f 4486 0cbf
00000030: f559 633f e4fc 1b3f 34ec d33d 27b3 bdbe
00000040: 4b27 103f 63ee f7be bb57 74be c750 753f
00000050: 1e2e 8fbf dc71 1b3f e280 953f 8e5f c83e
00000060: a410 593e 036f bcbe 1cf1 54bf 7e36 cd3f
00000070: 1cb9 883f 9f3b 8fbe a8dd d53e 6a56 083f
-0.7440612 0.27507022 1.065685 -0.36489233 0.30761322 -0.4883548 0.3520127 0.4764094
0.15487272 1.2275863 0.61278373 -0.54892373 0.8880914 0.60932755 0.103477865 -0.37050745
0.56309956 -0.48424062 -0.23861592 0.9582638 -1.1185949 0.6072061 1.1679957 0.39135402
0.21197754 -0.36803445 -0.83180404 1.6032255 1.0681491 -0.27975175 0.41770673 0.5325686

onnx::Conv_107 f4 [32, 1, 9]
00000000: 923d 2d3f 1ea2 193f 0aba 983f 69ae e13e
00000010: 403f 853e 4394 b4bc b0d4 17bf 6ab4 d0be
00000020: abb9 12bf 2789 94bf ab90 093f a887 29bf
00000030: c778 0c3f 2815 98bf 816c 69bc 5639 913d
00000040: fc1a 82bf 7117 5e3f 0246 9e3e 9bdf efbe
00000050: 28c7 3abe 5891 a93d 7f89 913e 5600 8f3f
00000060: cb82 993e c991 bb3e 762f 0e3f 0e58 a8bf
00000070: 2bb8 163f c11f c43e d4f0 093e 99d2 9bbe
00000080: eb27 683e 5d5e 203f cf0a 8cbf 6c05 48be
00000090: 954a 51bf 4f82 5f3e 88cb 32bf f897 1cbe
000000a0: 0f30 ccbe d9ad 5b3f 490d 4dbf 2155 283f
000000b0: 5892 9cbe 127b b8bd b020 17bf 26d3 29bf
000000c0: 5df1 f6be 28fe 42bf 496f 4ebf 724e 93be
000000d0: 2742 95be ce16 2ebe 1aef 353d 44a2 32bf
000000e0: 2ce1 8a3f 3c61 b5be 66a5 5bbe e687 8e3d
000000f0: 59a1 253e 5061 313d 67d5 513f 9a86 8dbf
00000100: fa9b b4bf c82b 843d ce2a 91be cb5d 093f
00000110: b5a7 5dbf ffa4 02bf 9f44 e5be 0854 afbe
00000120: e538 cabe e2a8 c13e 13af 6d3f 9ef8 61bf
00000130: 90a0 d6be cd56 de3e 1505 683e 0d29 81bf
00000140: 966e 513f 1488 c33f 0d39 b73f e8d9 393f
00000150: 761d 3cbf 4f7f e1be 6b04 733f 3d49 debd
00000160: 5135 c53e 8d9b dcbe 9c5e 553f 15b6 213f
00000170: 6d34 a93c 746f 7ebd 2316 9cbf 6468 87bf
00000180: 3288 35bf 1aef a9be 6c52 d63e 67a4 023e
00000190: db47 93bf f602 693f 127d dabf 95d0 353f
000001a0: 3cb0 aabe d8a1 58bf 5d70 893b 12c5 94bf
000001b0: 8f09 533e 6402 aabe 883d 57be f72b 733f
000001c0: c871 883f 23f5 873c 9f07 323f 1c47 a53f
000001d0: 032d 163e efdf b4bf 2ab6 86bd 5076 ad3f
000001e0: 1d4c f43e 70c3 b03e 5773 7ebe e32a 333f
000001f0: bd9d 78bf ecde c7bf 0bf0 1fbf 6b76 9d3c
00000200: 7000 553f 5d72 2d3f 0167 6b3e 868a 273e
00000210: c952 34be 522c 37bf 351b 69bf 4376 5e3f
00000220: e789 8fbf 68a0 373f 846e 633e 6f1c fb3e
00000230: 4563 b2be 5a53 57bf d637 3d3f 3e0c c2bf
00000240: dcf2 5fbf 42e3 52be 6361 88bf 1f0d 8bbf
00000250: 3b43 aebf a4d9 1f3e 5a4d a43e 7328 1c3f
00000260: cdce 053f e575 6ebf df30 15bf b659 fbbd
00000270: 30cc 8b3e 0036 433e 0f23 313e a7df 1c3f
00000280: b80e 173f 61a0 3b3f 5c9c 9a3e 2310 b6be
00000290: a992 36bf cb1a 45be 85ff c7bf daad bbbe
000002a0: 8aaa c6bf 8c84 48be 40eb 42bf 8f4b be3e
000002b0: daab 873e 62dd d1be c195 1d3f 7dff c63e
000002c0: a10b b13d daee fc3e f69d de3e 8e3f 3ebd
000002d0: 2f61 51bf 971a f03e 878b b5be fd73 d03e
000002e0: 6aa1 9b3f 8071 68bf 9992 1c3f 9bf9 83bf
000002f0: f724 213f 531b f5be 33db 6c3f 85bd 933f
00000300: 0496 22be 7b90 1abe 5c16 f33e d8c1 023f
00000310: e1e9 f6bc fbab 82bf 075b 2fbf 4931 2fbf
00000320: fac8 ecbe c99a f0bc 14b0 87be 5c86 3dbe
00000330: 97ee d53e 1f5b 253f cbd5 bc3e 612e d6be
00000340: c9f3 ce3f 94b7 abbe 26f2 ca3f f17e 88be
00000350: 4ad3 d03f dbf8 80bd c3f7 423f 652a 18bf
00000360: 9812 933f 4524 22bf fd96 0ebe b706 c13e
00000370: 7253 9cbf 615f 09c0 aaba 02bf 8493 05be
00000380: a960 bfbe 195f 3cbe 01a0 18be a1e3 ca3e
00000390: 0619 e83f 5c5c 773f e0eb ab3e bf7e 1c3f
000003a0: 650a 123d 71a7 01bf 31af 823f b025 d0be
000003b0: 611d 47bf c719 c3be 9a65 403f b3f8 97bc
000003c0: 0bb6 8bbf 7829 973e ca88 ac3e cf12 81bf
000003d0: 4050 3cbf 7b2c 05bf f7b3 3e3d eb27 833f
000003e0: 797f da3e d710 1cbe 9a3e 43bf 538d 07bf
000003f0: bf2c 493f b478 8d3e e6f1 943f 0b58 8a3e
0.67672074 0.60012996 1.1931775 0.44078377 0.26024818 -0.022043353 -0.5930891 -0.40762645
-0.57314557 -1.1604356 0.5373637 -0.6622262 0.5487179 -1.1881456 -0.014247061 0.07091014
-1.0164485 0.8675452 0.30912787 -0.46850285 -0.18240035 0.08279675 0.28425214 1.1171978
0.299826 0.36634663 0.5554117 -1.3151872 0.5887477 0.38305476 0.13470775 -0.3043411
0.22671477 0.62643987 -1.0940799 -0.19533318 -0.8175443 0.21827053 -0.69841814 -0.15292346
-0.39880416 0.85812145 -0.80098397 0.65754896 -0.305804 -0.09007849 -0.5903425 -0.6633781
-0.4823102 -0.7616906 -0.8063856 -0.28770787 -0.29152033 -0.17000887 0.04441748 -0.6977885
1.0849967 -0.35425746 -0.21449813 0.06959514 0.1617483 0.043305695 0.8196625 -1.1056702
-1.41101 0.06453663 -0.2835297 0.5365874 -0.86584026 -0.51033014 -0.44778916 -0.34243798
-0.39496532 0.3782416 0.9284527 -0.88269985 -0.41919374 0.434256 0.22658189 -1.0090653
0.81809366 1.5275903 1.4314286 0.72598124 -0.73482454 -0.4404244 0.94928616 -0.10853813
0.3851724 -0.43087426 0.8334749 0.6316846 0.020654881 -0.06211801 -1.2194256 -1.0578732
-0.7091094 -0.33190233 0.41859758 0.12758027 -1.1506304 0.91020143 -1.7069418 0.71021396
-0.3333758 -0.84621954 0.004194303 -1.1622641 0.20609115 -0.3320495 -0.21019566 0.9498896
1.0659723 0.016596382 0.6954288 1.2912326 0.14665608 -1.4130839 -0.06577714 1.3551731
0.4771432 0.34524107 -0.24848686 0.69987315 -0.9711569 -1.5614905 -0.6247565 0.019221505
0.8320379 0.6775263 0.22988512 0.16361436 -0.17609705 -0.71552 -0.9105714 0.86899203
-1.121396 0.71729136 0.22210127 0.4904513 -0.34841362 -0.8411156 0.73913324 -1.5159986
-0.8747995 -0.20594504 -1.065472 -1.0863379 -1.3614267 0.15610367 0.32090265 0.6099922
0.5226868 -0.9314864 -0.58277696 -0.122729704 0.2730422 0.19063568 0.1729853 0.61278766
0.59006834 0.73291594 0.30197418 -0.35559186 -0.71317536 -0.19248502 -1.5624853 -0.36656076
-1.5520794 -0.19581813 -0.76140213 0.37167022 0.264983 -0.40989214 0.6155663 0.38866797
0.08644796 0.4940098 0.4347989 -0.04644733 -0.81788915 0.46895286 -0.35458013 0.40713492
1.2158635 -0.9079819 0.6116119 -1.0310549 0.6294703 -0.4787241 0.9252197 1.1542212
-0.15877539 -0.15094177 0.47477996 0.5107703 -0.030140819 -1.0208734 -0.6849827 -0.6843458
-0.46247083 -0.029370682 -0.26501524 -0.18508285 0.41783592 0.64592165 0.3688186 -0.4183226
1.6168147 -0.33538496 1.5855148 -0.2665935 1.631448 -0.062974654 0.76159304 -0.5943969
1.1490049 -0.6333659 -0.13924785 0.37700436 -1.2212965 -2.1464465 -0.51066077 -0.13044554
-0.37378433 -0.18395652 -0.14904787 0.39626792 1.8132637 0.96625304 0.33578396 0.611309
0.035654444 -0.5064612 1.0209714 -0.40653753 -0.77779204 -0.38105604 0.7515503 -0.018551206
-1.091493 0.29523826 0.33698112 -1.0083865 -0.7355995 -0.52020997 0.046558347 1.0246557
0.4267538 -0.15240799 -0.762674 -0.5295002 0.785839 0.27631152 1.1636322 0.27020296

onnx::Conv_108 f4 [32]
00000000: 1ac5 75bf 26c5 fe3e 7a38 b3bf b057 813e
00000010: c4c8 bb3e abd7 523f 08c4 2ebf 4ee5 a93f
00000020: 421a 24be dd98 bfbf 188b de3e 13c1 4d3f
00000030: f38b eabf 4343 b73e a8c3 cc3e 34aa 6fbd
00000040: b490 7e3f d2c0 48bf de6d 0640 9ec2 73bf
00000050: c001 54be 832c 81bf 2f68 8b3e 146a acbf
00000060: b948 153f 8556 45bf 295a 57be 30df 533f
00000070: 9c02 13c0 7042 05bd 369d 4b3f 420b 84bf
-0.9600388 0.49759787 -1.400161 0.25262213 0.3667661 0.82360333 -0.6826787 1.3273103
-0.16025642 -1.4968525 0.43465495 0.8037273 -1.8323959 0.35793504 0.39993024 -0.058511928
0.9943955 -0.7841922 2.1004558 -0.9521884 -0.20703793 -1.0091709 0.27227923 -1.3469872
0.5831409 -0.77085143 -0.21030487 0.8276243 -2.2970343 -0.032534063 0.7953676 -1.0315936

onnx::Conv_110 f4 [64, 32, 1]
00000000: e97b 713f 3cda 883f 16f9 2e3d 7d74 f4bd
00000010: eb81 003e 807e 183f ebe7 213f cde1 05bf
00000020: 4faf b0be e15d 7e3e 81c4 f63e 511c 22bf
00000030: 3417 e13d 684c 1b3f 1cf9 b73e 94ef a1be
00000040: 30a3 83be 8ffd 703f ba8f f6be f651 f7bb
00000050: f2a3 7cbf 30ca 803f 30dd 29be f3bd 0dbf
00000060: 6d02 31bf be26 ccbe d60b ef3e b2ba 0dbf
00000070: d55f 2abf 4696 40be 42e4 fa3c 501b f6be
00000080: b8d0 f63d 80d4 2dbf c500 9abe 208f 1a3f
00000090: 27e2 70bf 6149 f93e 0848 f93e 1f6c 7abe
000000a0: 734c db3e c734 98bf b042 a3bc eda3 6dbe
000000b0: e339 013e 3239 b23e f540 57be 62ef f73d
000000c0: a5b5 953f 5045 40be 1752 d1be 0704 b23d
000000d0: d9ba 843e 45fd 88be 7cf4 0a3d 4f9d 80bf
000000e0: ffca d2be 996c 893e 4b60 cfbe 420f c5bd
000000f0: 4850 4f3f b242 503f e8c5 29bf 21a0 5cbe
00000100: d540 833e 80c2 0dbc a7d9 013d 460d d23e
00000110: c5e5 b9be 781b 6f3e 6d88 4c3f 8e39 6b3d
00000120: 1605 e4be 5aa8 8a3e 5864 8f3e 9886 c5bd
00000130: fba8 1a3e 1b65 323f 4e4f a23f a187 1a3e
00000140: 39c8 09bf 65ae bfbe 764b ebbe 8527 ff3d
00000150: 72bd 2dbe a22b ed3e 40b7 31bf 7b4e 43bf
00000160: 3d07 9bbe 5d84 cebe cd8e 5cbe f602 393e
00000170: 02a7 f6be 6aae 0cbf 2014 b63e 1c5a 39bf
00000180: 2478 84be afd6 b5be 84a6 993e 3c19 f3be
00000190: d52b 44bf 3bea 9e3d ca3f 963d 7396 a6be
000001a0: dac7 823f 6836 4bbe 4c05 d6bc bb7f f3be
000001b0: 831b d53e 21d7 86bf f74c 30bf 6487 203f
000001c0: d0ac b63e fd95 e3be ecab 3b3e 8dcc e03e
000001d0: e008 b63e 8d9a 8e3e 10ac 03bf 3216 35bf
000001e0: 9d53 cf3e a670 bdbc d434 84be 6acc ffbd
000001f0: 04b1 02bf 914d e43e f470 cc3d 7bae b73e
00000200: 3eaf 8b3f 591a ab3d 9639 b53e fd80 05bf
00000210: 4dd1 473f 655d adbe 2f00 5ebe c604 50be
00000220: 33d5 f7bd d561 13bd 173c 0e3f b3cf 573e
00000230: 2679 3b3f b024 b13d bb21 3d3e 0e8a febe
00000240: fb74 053e 46e9 2d3e 49b2 da3e 2c66 063f
00000250: 5ca3 fa3c 8901 0dbf fe31 453f 959b 94be
00000260: 6644 cc3e dd2a db3e a6d5 fa3e f44a 15bf
00000270: a232 acbe 4ec4 003f 7365 9a3f 899c 393f
00000280: e467 593e 6d94 0dbf 40a6 703c 0462 45bf
00000290: 9d46 00bf 228a 373d 8572 3ebd 7ba1 f4be
000002a0: 2519 373f efe8 bcbd 8f81 06bf 70a3 9fbe
000002b0: 95b0 0c3f f609 bcbf c99f 53bf 249a 693e
000002c0: 11f6 a63e 569d e6bd 95e0 bdbe 2d48 e13e
000002d0: 75f6 14be d78d d63e 8c19 45bf 639c 933d
000002e0: b817 2e3e 9cba 6a3e 21f7 7f3e 6a6d 553c
000002f0: 7838 d83d 9e09 983e e53c 793d 4d0f f03d
00000300: 1b68 5d3d 2a10 30bf 4fa8 0abf 8299 a53e
00000310: 5b4b 6cbf 222c 4c3d 26bf e53e 402c 5fbe
00000320: cd48 3d3f f631 81bf 730d 4bbe 2d95 c2be
00000330: a7bc 763e c974 903e 6992 b6be 41bc 993e
00000340: ddbd ae3f dd93 8ebe f09f fbbc a873 f73d
00000350: b447 f63e 8eb6 893b d561 00be 4376 85bf
00000360: 6a7d 20bf 6040 e83e e85a b7be 0463 4f3d
00000370: a5e3 c53e 1e7a 6f3f e48a 2dbf 00cd 28be
00000380: c84a 5a3e e290 053f 61f2 f93e c6d6 3ebf
00000390: 4a36 bd3e 4742 33bf 898e b1be eb19 5cbe
000003a0: 1661 0dbe eaed 0abd 0993 eebd dc98 dd3e
000003b0: 8430 fc3e e98d 1cbd 38b1 663e 7ca8 f0be
000003c0: eae5 e33e 09c4 653e 8bad 6b3e ff49 d73e
000003d0: f9f1 af3e 79eb 2cbf d1bc 6e3f d728 a5bd
000003e0: 8f83 293f c2f4 d03e 57b2 af3d c9c0 f9be
000003f0: 668c 8abe 3401 a73e 0160 7b3f d00b 923f
0.94329697 1.06916 0.042718016 -0.11936281 0.1254956 0.59568024 0.63244504 -0.5229767
-0.3450875 0.248405 0.48196796 -0.6332446 0.10990754 0.6066346 0.35932243 -0.31628096
-0.2571044 0.941369 -0.4815653 -0.0075476123 -0.9868766 1.0061703 -0.16588283 -0.55367965
-0.69144326 -0.39873308 0.46688718 -0.55363 -0.6655248 -0.18807325 0.03062642 -0.48067713
0.12051529 -0.67902374 -0.30078712 0.6037464 -0.9409508 0.48688796 0.48687768 -0.24455307
0.42831764 -1.1891106 -0.01992926 -0.23207064 0.12619738 0.34809262 -0.21020873 0.121062055
1.1696059 -0.1877644 -0.40882942 0.086921744 0.25923803 -0.2675573 0.033924565 -1.0048007
-0.411705 0.26840666 -0.40503153 -0.09622051 0.80981874 0.8135177 -0.66317606 -0.2154546
0.256354 -0.008652329 0.03170171 0.41025752 -0.36308113 0.23350322 0.7989567 0.057427935
-0.4453513 0.27081567 0.28006244 -0.09644812 0.15103523 0.69685525 1.2680452 0.15090801
-0.5382114 -0.3743774 -0.4595601 0.124587096 -0.16966799 0.46322352 -0.6942024 -0.76291627
-0.3027896 -0.4033536 -0.21538849 0.18067536 -0.48174292 -0.54953635 0.3556223 -0.7240312
-0.2587291 -0.35515353 0.30009854 -0.4748019 -0.7662938 0.0775952 0.073363855 -0.3253666
1.021724 -0.19844973 -0.026125573 -0.47558388 0.41622552 -1.0534402 -0.6886744 0.6270659
0.3567872 -0.4445037 0.18327302 0.4390606 0.35553646 0.27852288 -0.5143442 -0.7073699
0.4049348 -0.023125004 -0.25821555 -0.12490161 -0.51051354 0.44590428 0.099824816 0.35875306
1.0912855 0.08354635 0.35395497 -0.52149945 0.7805374 -0.33860317 -0.21679758 -0.20314321
-0.121012114 -0.03598197 0.5556044 0.21075325 0.7323173 0.08649576 0.18469898 -0.49714702
0.13032906 0.16983518 0.42714146 0.5249965 0.030595474 -0.5508047 0.7702941 -0.2902495
0.39895934 0.4280614 0.48991126 -0.58317494 -0.3363238 0.5029954 1.206221 0.7250448
0.21231037 -0.55304605 0.014688075 -0.77102685 -0.5010775 0.044809468 -0.046495933 -0.4777945
0.7152274 -0.09224116 -0.5254144 -0.3117938 0.5495694 -1.469054 -0.8266569 0.22812706
0.3260961 -0.11260478 -0.37085405 0.44000378 -0.14547141 0.4190509 -0.76992106 0.07207563
0.17001235 0.22922748 0.24996616 0.013026575 0.105576456 0.29694837 0.06084909 0.117216684
0.05405436 -0.68774664 -0.5416307 0.3234368 -0.92302483 0.049846776 0.44872397 -0.21794224
0.7393921 -1.0093372 -0.19829349 -0.38004437 0.24095403 0.282141 -0.35658577 0.3002644
1.3651692 -0.27847186 -0.030715913 0.120826066 0.4810158 0.0042026704 -0.1253732 -1.0426716
-0.62691367 0.45361614 -0.35811543 0.050631538 0.38650241 0.9354571 -0.67790055 -0.16484451
0.2131759 0.521742 0.48817733 -0.7454647 0.36955482 -0.70023006 -0.34679058 -0.21494262
-0.13806567 -0.0339183 -0.116491385 0.43280685 0.49255764 -0.038221274 0.22528541 -0.47003543
0.44511348 0.22438063 0.2301542 0.42048642 0.34364298 -0.675468 0.9325686 -0.0806443
0.6621637 0.40811735 0.085789375 -0.48779896 -0.2706024 0.32618105 0.98193365 1.1409855

onnx::Conv_111 f4 [64]
00000000: 5ae2 933e 9f2d e23e 78f8 1c3e 4541 503f
00000010: 2424 04c0 2fda aa3f 8c12 093f 0386 eabf
00000020: c4df 173f cb05 f83e 2d50 3c3e 0852 c6bf
00000030: 62ff b0bf 238a 2dbf 9cee 16c0 7288 dbbe
00000040: 6aca 143f 3700 103f dcf8 2b3f c479 103f
00000050: e7c8 2fc0 7591 02c0 e2e8 873e 6baa 81bf
00000060: d93e c93f 9c18 97bf ee7f f43e 7eb0 013f
00000070: 5f74 713f dc23 0c3f ee81 6d3e 0e40 323f
00000080: 0b4b 4e3d ae3a 2c3e 5610 25c0 28c9 b33e
00000090: 5b66 773d 0291 3bbf 69bc 30c0 0d15 5dbd
000000a0: 9868 603f 2ac2 e33e e5fd 4b3e 2b97 f63e
000000b0: 351d c03f 36ae a53e 3eb5 213f 60fb 2b3e
000000c0: 7838 5cbf ffc7 8ebf 9694 db3e 4603 943e
000000d0: 395e 423f b5e8 413f a548 353f effa fbbf
000000e0: db31 11bf 5147 1ac0 d456 d1bf a5e3 bebf
000000f0: df7c e0bf 355c 88bf afbc eb3e 0a53 43bf
0.2888363 0.4417543 0.15329158 0.81349593 -2.0647058 1.3347834 0.53543925 -1.8322147
0.59325814 0.4844192 0.1838996 -1.5493784 -1.3827937 -0.67788905 -2.3583136 -0.42877537
0.5812136 0.5625033 0.67176604 0.564358 -2.746637 -2.040128 0.26544863 -1.0130132
1.5722305 -1.1804385 0.47753853 0.5065993 0.94318193 0.5474222 0.23194095 0.6962899
0.050364535 0.1681926 -2.579122 0.35114408 0.06040035 -0.7326814 -2.7614996 -0.053975154
0.876596 0.44484073 0.19921072 0.48162207 1.5008913 0.32359475 0.6316718 0.1679511
-0.86023664 -1.1154784 0.428868 0.28908747 0.7592502 0.7574571 0.7081397 -1.9685954
-0.567167 -2.4106028 -1.6354623 -1.4913222 -1.7538108 -1.0653139 0.46042392 -0.7629858
